backend_python/deep-learning/model/iris_deep_learning_model.onnx (onnx, 11675 bytes, 6 tensors)

sequential_1/dense_2_1/Cast/ReadVariableOp:0 f4 [32, 3]
000000 10 9e 2b be 22 fb a4 3e 4c ca 50 3e d3 82 10 be
       -0.16759515 0.3222285 0.2038967 -0.14112405
000010 73 09 89 3e 7e c9 70 be 7a 4c 74 be 49 08 3f 3e
       0.26765022 -0.23514363 -0.23857298 0.18655504
000020 a1 33 a3 3e 91 df 18 be 84 90 15 3f c8 35 09 bf
       0.31875327 -0.14929034 0.5842364 -0.5359769
000030 ac 9b c2 3e c9 65 5a 3e f8 c3 9b be 7e a1 b1 3e
       0.38009393 0.2132789 -0.3042295 0.3469352
000040 dd af 96 3e 99 6f cc bd fc a0 4e 3d 9c 0a cf be
       0.29431048 -0.09982223 0.050446495 -0.40437782
000050 c8 72 a2 be 94 6f 5e be ba 1b de 3d c0 18 99 3e
       -0.31728196 -0.21722251 0.10845132 0.29901695
000060 d2 d2 69 bd 78 81 ca 3e c4 46 30 bd 39 3f 76 bd
       -0.05708582 0.39551902 -0.043036237 -0.060118888
000070 22 1a c2 be cb 25 d3 be 67 1d 07 3f d6 17 bd be
       -0.37910563 -0.4123977 0.5277924 -0.36932248
000080 40 5c fa bc 70 3c 00 3e b2 d9 fb 3e 37 27 2a be
       -0.030561566 0.12523055 0.49189526 -0.16616522
000090 3f b3 41 be 15 c1 91 be 89 64 b2 39 35 d2 1b be
       -0.18916033 -0.28467622 0.0003402571 -0.15216906
0000a0 e4 e9 66 3e c7 0a 74 3e 23 39 7a bd d0 cb c9 be
       0.2255016 0.23832236 -0.061089646 -0.3941331
0000b0 e5 6a 8d be f6 44 d8 3e 59 30 ed be 35 37 e0 be
       -0.27620617 0.42240113 -0.4632595 -0.4379212
0000c0 2d 72 8c bd d5 6b b1 bc f0 16 c6 3e 0e c7 a8 be
       -0.06857715 -0.021657864 0.38689375 -0.32964367
0000d0 17 f0 96 3e 33 9c b2 3d 1b d4 4e be 2f 1a a2 3e
       0.2948005 0.08721199 -0.201981 0.31660601
0000e0 d8 bb 1e 3d fb ce b3 be 7c f1 c5 be 6a 44 29 3e
       0.03875336 -0.3511885 -0.386608 0.16530004
0000f0 30 a0 73 3e ef 51 79 3e a3 99 d2 be 6d ba 0b be
       0.23791575 0.24347661 -0.4113284 -0.13645335
000100 72 87 b9 be ba 83 f9 3e f6 53 b9 bd b5 c6 08 3e
       -0.3623615 0.48733312 -0.090492174 0.1335705
000110 94 52 96 be 22 3c 15 bf 64 44 d8 3e 4a fa a2 bc
       -0.29359877 -0.5829488 0.42239678 -0.019894738
000120 cd 98 d8 bd 3b 78 d1 be 41 13 d1 3e e4 a1 4f 3e
       -0.105760194 -0.4091204 0.40835002 0.202766
000130 41 f4 21 be eb bd 6e 3e 36 22 e9 3d c0 ff 85 bd
       -0.15815832 0.23314635 0.11383478 -0.06542921
000140 d5 70 72 3e b3 cc 9c be 4b 66 9c bd 75 64 b5 3e
       0.23675855 -0.30624923 -0.07636698 0.35428205
000150 1c bf 6c 3e 6f ae 9f be 87 b0 d4 3c ac c1 d1 3d
       0.23119777 -0.3118777 0.025963081 0.10242018
000160 5a 41 69 3d e6 75 ca 3e 21 f0 4c 3e 8a 10 8c be
       0.05694709 0.39543074 0.20013477 -0.27356368
000170 6c 3e 9d be 95 5d 06 3f 5d 6e 34 3e 48 bb 1a be
       -0.30711687 0.52486545 0.17620225 -0.15110505

sequential_1/dense_2_1/BiasAdd/ReadVariableOp:0 f4 [3]
000000 be 1c c1 bd 32 12 2a 3e 0e ce 04 be
       -0.0942931 0.16608503 -0.12969229

sequential_1/dense_1_2/Cast/ReadVariableOp:0 f4 [64, 32]
000000 d4 a8 f7 3d ce f7 46 3e cc ad 26 be 56 e0 af 3d
       0.12092748 0.19430467 -0.16277236 0.085877106
000010 7c 1f 61 3e b2 05 1b be a4 3c e3 bd 99 a9 60 3c
       0.21984667 -0.15138891 -0.11095551 0.01371231
000020 fc b6 28 3d ea 48 64 3e 06 ac 56 be 72 4f 57 bd
       0.041190132 0.2229344 -0.20964059 -0.052566
000030 59 14 56 be 91 a3 1a 3c 81 e4 20 3e 12 d0 27 bd
       -0.209062 0.009438411 0.15712167 -0.040969916
000040 b8 82 09 3d 3a ed f6 bd 65 ed da 39 8e 1f 77 3e
       0.03357193 -0.12056966 0.00041757073 0.24133131
000050 59 32 4a be f6 0d cc 3d c5 58 fe 3d 57 f4 7d bd
       -0.19745769 0.099636 0.12419275 -0.0620006
000060 a8 77 57 3e 8c 74 0f be 0c 17 11 3e 41 6a 31 3e
       0.21041739 -0.14009303 0.14168948 0.17325689
000070 20 ad c8 3d b8 4f 56 3e 2b ac 74 3d 81 90 8d 3e
       0.09798646 0.20928848 0.059734505 0.2764931
000080 55 f5 02 3d 84 1d cf 3d e6 90 17 3e 45 b8 d7 3c
       0.031972248 0.101130515 0.14801368 0.026332984
000090 20 11 7b be 7d 3b 9b be cf c6 29 be 29 34 ed 3d
       -0.24518251 -0.30318823 -0.16579746 0.115822144
0000a0 d0 d2 e2 be a3 85 5c be f6 24 c6 3d 49 36 12 be
       -0.44301462 -0.21535353 0.096750185 -0.1427852
0000b0 92 59 e3 bd 33 17 5e bd e4 c0 30 3e 86 d9 f1 bc
       -0.111010686 -0.054221343 0.17261082 -0.029522669
0000c0 c9 88 4a 3e 20 c0 92 be d7 2d 04 be 6b cd 92 3e
       0.19778742 -0.28662205 -0.12908112 0.28672346
0000d0 e0 3b a2 be 6d d0 49 bd 29 80 5e bd 09 2a a8 3d
       -0.31686306 -0.049271036 -0.05432144 0.082111426
0000e0 7f 13 c1 3e 5d 38 82 3e 82 81 a4 3e 6e cc f8 bd
       0.37710187 0.25433627 0.32130057 -0.12148367
0000f0 82 8e de bd 95 d1 01 3f 4a e2 1e bd 51 b3 5e be
       -0.10867025 0.5071042 -0.038790025 -0.21748091
000100 3c d3 79 3e 2a b1 58 3e 01 73 d3 3d 01 8f 62 3d
       0.24396986 0.21161333 0.1032467 0.05531216
000110 f2 14 84 3d da 70 17 3e e3 a1 6c 3d f2 92 67 3e
       0.064493075 0.14789143 0.057771575 0.22614649
000120 a2 52 40 be 59 f2 89 be 0f 93 7f be 22 6e 2b 3e
       -0.18781522 -0.2694271 -0.24958442 0.16741231
000130 71 57 c6 3d 3f 81 35 3e a8 c7 b9 3d 1f 53 a9 be
       0.09684647 0.17725085 0.090712845 -0.3307123
000140 5a 65 5b 3d f8 b3 e7 bd f5 1e 51 be 11 99 ba 3e
       0.053563453 -0.11313623 -0.20421965 0.36444905
000150 38 ae a1 3d dd b2 1f bd 3c 50 97 3e e4 54 37 3e
       0.07894558 -0.038988937 0.295534 0.17903477
000160 90 79 98 3d c9 67 8f 3c 56 88 1f bd 9e 29 2a 3e
       0.07445061 0.017505543 -0.03894838 0.16617438
000170 19 0b 76 be d9 2b 52 3e 83 6c c8 bd a6 6c 1e 3d
       -0.24027671 0.20524539 -0.09786322 0.038677834
000180 90 c7 21 bc 4a 94 e2 bd e9 78 c9 3e 6e 72 02 bd
       -0.00987424 -0.1106344 0.3935006 -0.03184741
000190 d3 06 d9 3d f3 3a f2 3d 6e 58 e8 3c 07 9c 25 3c
       0.10597005 0.1182765 0.028362479 0.010108001
0001a0 95 a6 f7 3b 2a 0e 2b be 80 a4 4a bd 57 a6 c1 bd
       0.0075577 -0.16704622 -0.049473286 -0.09455555
0001b0 bf f5 1a be b2 48 d6 3e 90 3c 46 be fb bc 84 be
       -0.15132807 0.41852337 -0.1935904 -0.2592543
0001c0 84 95 5f 3e 4e b2 42 3e ed 32 06 be aa 18 77 3d
       0.2183438 0.1901333 -0.13105364 0.060326256
0001d0 ba c7 1e 3e 49 05 32 3d 73 c5 93 3d a8 23 01 3e
       0.15505877 0.04346207 0.07215395 0.12611258
0001e0 82 01 f8 3d 76 f9 40 be 70 24 2c 3e 54 6c 67 be
       0.121096626 -0.18845162 0.16810775 -0.22599918
0001f0 fd 0c 2d be 43 58 d9 3d ec 10 34 be 16 55 a4 bd
       -0.16899486 0.10612538 -0.1758458 -0.08024041
000200 2d 86 20 3e 08 a1 62 3e f5 e0 03 3d d0 d6 9a be
       0.15676184 0.22131741 0.032196958 -0.30242014
000210 a5 a5 d3 bd 0d 33 2a be 24 16 2c be 51 37 98 3e
       -0.103343286 -0.16621037 -0.16805321 0.29729703
000220 78 4e 22 be 8e ee 3d be 06 dc 67 bd d1 5d 97 3d
       -0.15850246 -0.18548033 -0.056606315 0.07390941
000230 07 f7 a6 bd 56 69 b5 3e 03 dd 8b be bf 44 7b be
       -0.081525855 0.35431927 -0.27317056 -0.24537943
000240 f7 b9 1d 3d 2b 56 ee bd f3 77 70 be 8e 2a 87 3e
       0.038507428 -0.11637529 -0.23483257 0.26399654
000250 a2 40 71 3c 71 b0 8d 3e 5c 8c 44 be a0 a4 02 3e
       0.014724882 0.27673677 -0.19194168 0.12758112
000260 3c b0 6b 3e 36 54 0a 3e ce cd ef bd 3d 54 13 be
       0.23016447 0.13508686 -0.11709176 -0.14387603
000270 94 e2 ac bd e0 fa 85 bc 70 bb 05 be c4 87 ab bc
       -0.08441654 -0.016354978 -0.13059783 -0.020938762
000280 a6 09 6e be 42 01 ba bd 07 d4 f9 3d 25 74 6d 3d
       -0.23245868 -0.09082271 0.12198644 0.057972092
000290 15 6e b4 bc 77 26 62 3e 84 76 a8 3e 0f d5 c4 bd
       -0.022025147 0.22084986 0.3290292 -0.0961095
0002a0 dc a0 6c be bf 7d 24 3d 24 60 80 3e 1c 67 1d 3e
       -0.23108238 0.040158983 0.2507335 0.15371364
0002b0 f0 26 5a be 48 bf 02 be 44 1d f0 3d 17 7d 7f 3d
       -0.21303916 -0.1276828 0.11724332 0.062375154
0002c0 ba 7c 7f be 10 63 76 3d d3 d0 cb 3c a8 ce 89 3d
       -0.24949923 0.060153067 0.024879849 0.0672887
0002d0 ad b6 ad 3d 34 ad 97 3d 32 9d 2f 3e 0d 0e 90 be
       0.08482108 0.07406083 0.17149809 -0.2813572
0002e0 66 a7 02 3e ef 0f ab 3d 61 bd e7 bc 20 39 cb bd
       0.1275917 0.083526485 -0.028288545 -0.09923005
0002f0 33 c4 88 bd dc 41 9c bd 47 d9 66 bb c5 fc ac bd
       -0.06678047 -0.07629749 -0.0035224722 -0.084466495
000300 ca 4a 24 3e 11 2d 55 be 12 7a 67 3e 1c 1f 41 3d
       0.16044155 -0.20817973 0.2260516 0.04714881
000310 ee b8 06 3d 3e c8 e8 bd 47 60 25 be 4f 0e 66 3e
       0.032891206 -0.11366318 -0.16150008 0.22466396
000320 f5 3e dc 3d fc 9f 77 be 17 d5 0f bd be e6 38 bd
       0.107541956 -0.24182123 -0.035115328 -0.045141928
000330 4d df bb bd 7b 48 e8 3d c9 52 da 3d 0b 97 dd bc
       -0.091734506 0.113419496 0.10660321 -0.027049562
000340 f3 48 50 3d 8d aa 27 3e 00 14 fd 3a 22 c1 9e 3d
       0.05085082 0.16373654 0.0019308329 0.07751681
000350 e2 54 32 be cf 66 23 3d 54 e4 82 3d 63 3d 2a 3e
       -0.17415193 0.039892968 0.063912064 0.1662498
000360 02 84 be bc 49 ae 47 3e 1c 85 21 3d 1f 06 29 be
       -0.023256306 0.19500078 0.039433584 -0.16506241
000370 0f 59 77 3d b0 a9 8a 3e da 48 e0 3d 3d 98 f3 bd
       0.060387667 0.27082586 0.10951395 -0.118942715
000380 8d 8b 87 3e cb ee 31 be 0d 93 0e 3e 04 08 b8 3d
       0.26473656 -0.17376249 0.13923283 0.08985904
000390 a4 b2 23 3c d8 9d 30 3e 99 40 18 3d c6 93 35 3e
       0.009991322 0.17247713 0.03717098 0.17732152
0003a0 c5 7f 01 bd 1b 26 8b 3e 04 db 25 be b5 90 70 3e
       -0.03161599 0.2717751 -0.16196829 0.23492701
0003b0 62 14 3a be f8 83 9c 3e 77 52 ff 3d 19 37 fd 3d
       -0.18171838 0.30569434 0.12466901 0.12364025
0003c0 27 74 3f 3e d3 f2 b9 3d a7 c5 5f be 3e ab 36 3d
       0.18696652 0.09079518 -0.21852742 0.044596903
0003d0 e8 9c 86 3e 12 98 19 3e 1e 0b 1a 3e 55 47 b0 bd
       0.26291585 0.14999416 0.15043303 -0.086073555
0003e0 a3 3e 53 3e 80 bd 2c bd b0 16 b9 3d 95 67 b7 3c
       0.20629363 -0.04217291 0.090375304 0.022388259
0003f0 8f b8 bc bd 8c 76 10 3e e9 25 3d 3e a4 ed b1 bd
       -0.09214889 0.14107722 0.18471493 -0.086879045

sequential_1/dense_1_2/BiasAdd/ReadVariableOp:0 f4 [32]
000000 80 e1 23 3e 6e 69 18 bd 6b ec e4 3d b6 f6 3a 3e
       0.1600399 -0.03720992 0.11177906 0.18258175
000010 8f 7f 08 3e 8d c7 52 3e 3a ba f6 3c b0 b4 d7 3c
       0.1332991 0.20583935 0.030118097 0.026331276
000020 c6 0e 2e 3e 4e 47 82 3d 79 e7 cc bb 97 4b 14 3e
       0.16997823 0.063612565 -0.0062531796 0.1448196
000030 17 e1 10 bd 26 41 19 3e 35 4c b8 3a de 0b 7e 3d
       -0.035370912 0.14966258 0.0014060797 0.062023036
000040 4c 7f c5 bd 96 8a 16 3e 83 39 ff bc a6 2c cf bd
       -0.096434206 0.14701304 -0.031155353 -0.10115938
000050 62 7b 10 3e 73 83 1f be a4 09 89 3d 73 ae 1f 3e
       0.14109567 -0.15577488 0.06691292 0.15593891
000060 6b 2b 0e be 0c d1 35 bd 9b 06 f1 bd 41 82 de bc
       -0.1388375 -0.044388816 -0.11768838 -0.02716172
000070 99 5e 12 3d 91 fc fd bd c1 6d 24 bd 16 07 d3 3d
       0.035734747 -0.12401689 -0.040143732 0.10304086

sequential_1/dense_1/Cast/ReadVariableOp:0 f4 [4, 64]
000000 62 41 37 be 6b 35 a3 3d d5 c4 96 be 78 50 11 3e
       -0.17896035 0.07969173 -0.29447046 0.14190853
000010 31 e9 f0 bd 2c f2 91 be 62 21 81 3d 26 9c 8c be
       -0.11763228 -0.28505075 0.063051954 -0.27462882
000020 a8 bc b7 3c 81 b0 41 3d fe d8 83 bd a2 c6 87 3e
       0.022428825 0.047287468 -0.06437872 0.26518732
000030 d6 ca aa 3a 5d 4f 2a 3d 58 fe c9 bd 70 c0 80 bd
       0.001303042 0.041579593 -0.09862965 -0.062867045
000040 9a e7 88 be dd 3a d8 be fb 09 b6 be 1e 15 c1 bc
       -0.26739198 -0.4223241 -0.3555449 -0.02356964
000050 95 54 77 3e d8 0c 75 3e 1e dc 99 3e 4a a9 21 be
       0.24153359 0.23930681 0.3005075 -0.15787235
000060 be 2a a1 be a5 a2 49 3e 11 9c a6 be 3d 36 78 3e
       -0.31477922 0.1969095 -0.32540944 0.2423944
000070 ed 5b 94 3e da 31 e6 3d 4e b7 c0 bd c0 61 5a be
       0.28976384 0.11239977 -0.094099626 -0.21326351
000080 21 cc 48 3e 14 1e a6 3e d1 45 02 be dc df 1c bc
       0.19609119 0.32444823 -0.12721945 -0.009574857
000090 0e 07 9f be 13 ae 4e be 27 f9 c9 3a a7 68 8b 3e
       -0.3106007 -0.20183592 0.0015409336 0.2722828
0000a0 01 9c 79 3e 3d 94 8e 3c 1f e8 a5 3e 36 0c 2f be
       0.24375917 0.01740467 0.32403657 -0.17094502
0000b0 ad 4a 49 3b 95 0f bf bd 96 5f b8 be af 5d 96 3e
       0.0030714676 -0.09329144 -0.36010426 0.2936835
0000c0 5a 94 fc bd ea b6 b9 bd 4e c3 8e be a7 71 da 3d
       -0.12332983 -0.09068091 -0.2788338 0.10666209
0000d0 9f d9 5a 3d d7 4a cf be 55 fe 7f be 2c 50 0c 3d
       0.053430196 -0.40486786 -0.24999364 0.034256145
0000e0 f0 e4 b3 bd ad da 42 3e 22 cb 80 3e 8a 95 35 3e
       -0.08783901 0.1902873 0.25154978 0.17732826
0000f0 2c a4 d5 bb 7d 09 af bd 05 60 84 3d 8b 3b 9e 3d
       -0.006519815 -0.085467316 0.06463627 0.07726201
000100 2f 50 a4 bb b0 08 dd bd 69 ca 97 bb 7a f0 bb be
       -0.0050144414 -0.10792673 -0.0046322835 -0.36706907
000110 97 bb ba bc 6a b0 58 3e c5 b3 8e be 9f 16 81 be
       -0.022794528 0.21161047 -0.27871528 -0.2521257
000120 2b 5c 83 3e a0 43 5c 3e 3a f3 52 be d9 85 eb bc
       0.25656256 0.21510172 -0.20600596 -0.028750347
000130 84 ce 12 3e 7b a3 17 be 7d 58 00 3e 0b 24 86 3e
       0.14336592 -0.14808457 0.12533756 0.26199374
000140 37 48 ea bd a5 bd 64 bd 37 7e 52 be b3 f8 42 3d
       -0.11439555 -0.05584492 -0.2055596 0.04760046
000150 2b 96 11 be e5 9f 3b 3d e5 d6 3c 3e 4b 26 65 3c
       -0.14217441 0.045806784 0.18441351 0.013986181
000160 60 3b 8a 3e 5d 0f 92 be 38 0c a2 3e 33 77 40 be
       0.26998425 -0.28527346 0.31649947 -0.18795471
000170 67 7d 2b be df ed 7f 3e 44 0d 0c be 42 17 7a be
       -0.16747056 0.24993084 -0.13676935 -0.24422935
000180 e5 64 09 3e fc b6 06 bd 14 81 46 be d5 5d b9 3e
       0.13417394 -0.03288935 -0.19385177 0.362044
000190 b5 4c 76 bd b7 d1 0c 3e 52 e3 85 3e 5b 6f 5a be
       -0.060131747 0.13751875 0.26149994 -0.21331541
0001a0 7d 96 30 be 96 6e 6b 3e 17 02 09 be a6 1c 0e be
       -0.17244907 0.22991404 -0.13379703 -0.13878116
0001b0 af b0 18 3e 86 fe f0 3d d6 f9 41 bd 89 5d 7e 3d
       0.1491115 0.117672965 -0.047357403 0.06210092
0001c0 c7 61 06 3e 8d b9 0b 3e 30 80 d8 3d 06 a3 e3 bd
       0.13123237 0.13645001 0.10571325 -0.11115079
0001d0 b9 9a 54 bd db f1 3b 3e 6b 63 39 be 78 14 b3 bd
       -0.051905368 0.1835398 -0.18104331 -0.087441385
0001e0 b3 6a 04 be ce 90 8d be 0e 32 57 3b 7d 47 20 3e
       -0.12931328 -0.2764954 0.0032836231 0.1565227
0001f0 c1 a1 63 3e 0c 77 0a bd 1a 50 94 be 64 94 a1 bd
       0.22229673 -0.03380494 -0.28967363 -0.078896314
000200 33 4d 72 bc ba dc 21 be b1 6f 72 3e 31 2a 3a 3e
       -0.014788914 -0.15806857 0.2367542 0.18180157
000210 2e 2f ca 3e 5f c1 24 be 38 3f 53 3e e8 46 59 3d
       0.3948912 -0.1608939 0.20629585 0.053046137
000220 8f e4 56 be 6e 43 d6 bc 0d 42 94 3e 8d d5 61 be
       -0.20985626 -0.0261552 0.28956643 -0.2205412
000230 89 bf a9 3d 3a 6d bc 3d 5d 06 3d be 84 d3 a1 be
       0.082884856 0.09200521 -0.18459459 -0.31606686
000240 a4 0b e4 bd 7b af 41 3c d1 31 cf 3d 97 28 af bd
       -0.11135033 0.011821623 0.101169236 -0.08552664
000250 99 d9 9d 3e ec 01 13 3b ce c6 6a bd 20 02 ce 3c
       0.30830076 0.0022431565 -0.0573185 0.025147498
000260 41 67 06 be 71 76 c0 3e d3 2e ee bd d2 b9 15 3e
       -0.13125326 0.37590364 -0.11630025 0.14621666
000270 12 c9 db bd ac 2d 1b be 13 b0 6c 3e 25 2f 6a bc
       -0.107317105 -0.15154141 0.23114042 -0.014293467
000280 e4 02 85 3d a1 67 47 be 8a ae 31 3e 2e b9 20 be
       0.06494692 -0.19473125 0.17351738 -0.1569564
000290 a3 07 c2 be e8 bb 2a bb 38 05 97 be 4f ee 88 3e
       -0.3789645 -0.0026051942 -0.2949617 0.26744315
0002a0 ea d5 a1 be bf 98 8c be 54 8e 60 bd 1f 25 81 be
       -0.31608516 -0.27460286 -0.054823235 -0.25223634
0002b0 ab 4e 89 3e 51 1c 44 3e e9 4d 89 be 0a f2 94 3e
       0.2681783 0.19151427 -0.26817253 0.2909091
0002c0 7e 62 85 be 8b b6 5d be f2 f3 7c 3e ea 03 83 3e
       -0.26051706 -0.21651666 0.24702433 0.25588924
0002d0 e0 b7 a6 3e 16 12 29 3d 00 e6 61 bd a4 9c 8c bd
       0.3256216 0.041277014 -0.055150986 -0.06865814
0002e0 e3 4f 02 bd 59 9d 1e 3e a9 c2 8e be ad 51 9e 3d
       -0.031814467 0.15489711 -0.2788289 0.07730422
0002f0 e5 3e a7 3e 8c d9 08 3e d7 85 aa 3e 07 3b 8f 3c
       0.32665172 0.13364238 0.33305237 0.017484201
000300 5f e0 62 3e 78 5e be 3e b4 ed 91 3e e1 d9 84 3e
       0.22155903 0.3718145 0.28501666 0.25947478
000310 8c ef 9f 3d 2f f2 4c be 36 15 46 3e 6a e0 e4 3d
       0.07809362 -0.2001426 0.19344029 0.11175616
000320 7f 5d a5 3d 09 71 4e 3e 8f 1e 9f be fe bf 2c bd
       0.080744736 0.20160307 -0.31078002 -0.042175286
000330 c2 36 bf be 3f 5e 9a 3e cc 3d 66 bd 7f b0 20 be
       -0.37346464 0.3015003 -0.056211278 -0.15692328
000340 af c4 38 3e 0c 65 8d be a3 8c 85 3e 84 5e ab be
       0.18043779 -0.27616155 0.2608386 -0.33470547
000350 fc 39 d0 bd 15 45 c1 3e f1 f6 86 3d 6f 11 94 be
       -0.1016731 0.37748018 0.06590069 -0.2891955
000360 8e 8b af be 2d 96 bc 3e 45 a1 4a 3e 07 3b ab 3e
       -0.3428616 0.36833325 0.19788082 0.33443472
000370 be 4e 55 be 8c 3f 8e be c8 d9 ce 3e 6a e1 09 3e
       -0.20830819 -0.27782857 0.4040053 0.13464895
000380 79 5e 8d 3e dd 40 03 be 9e f9 be 3e 56 f7 89 be
       0.2761114 -0.12817712 0.37299818 -0.26946515
000390 16 65 fb 3d 2e 0d a9 bc cb 7e c1 bc 47 3d d3 3d
       0.1227514 -0.020636167 -0.02362003 0.10314422
0003a0 51 0b 6a bd 79 62 8b be 0b 27 a3 be a1 c1 38 be
       -0.0571397 -0.27223566 -0.31865725 -0.18042614
0003b0 45 90 2d bc 30 c0 52 be 98 4d 40 bd 06 94 1c 3e
       -0.010593479 -0.20581126 -0.046949 0.15290841
0003c0 f4 66 91 be f3 f3 56 be f4 0b 67 3e 6e b3 ad 3e
       -0.2839886 -0.20991497 0.22563154 0.33925956
0003d0 ea 39 e7 bd 92 cd b8 be 80 ac 14 bd 2b d9 02 be
       -0.11290343 -0.36094338 -0.03629732 -0.12778156
0003e0 2d 33 2f be 00 41 a6 bd 78 6f 00 be 46 21 b0 3e
       -0.17109366 -0.081178665 -0.12542522 0.34400386
0003f0 e3 28 66 bd c8 ed 89 3e d4 6a 2d 3c 82 b2 02 be
       -0.056191336 0.26939225 0.010584552 -0.12763408

sequential_1/dense_1/BiasAdd/ReadVariableOp:0 f4 [64]
000000 7f 1c 85 bd 0e c8 a1 bd ce a0 29 3e c5 38 1b 3e
       -0.06499576 -0.078994855 0.16565248 0.15158375
000010 2e a5 8e bd 0a a6 a9 3c 34 76 00 3e cb 86 9f 3d
       -0.06965099 0.020709056 0.12545091 0.077893816
000020 00 5c 1d bd 68 5d b3 bd fe a6 3a 3e df 1f 35 3d
       -0.038417816 -0.0875805 0.18227765 0.044219848
000030 a4 20 10 3d 57 ce 0b be 52 03 7a bc f4 b6 9a 3d
       0.03518738 -0.13652931 -0.015259581 0.07554427
000040 4b 38 44 3d a2 29 d8 3d a3 f2 15 3e 82 f4 a6 bc
       0.047905248 0.10554816 0.1464334 -0.020380262
000050 4c 82 8b bd e8 38 12 bd db 70 47 3d 08 73 21 3e
       -0.068119615 -0.0356988 0.04869161 0.15766537
000060 b2 b7 cd 3c d5 be ed bd 21 4f 0d 3e e2 31 ec bd
       0.025112007 -0.11608664 0.13799717 -0.11532952
000070 bc e8 14 3e 3e b3 18 3e dc 92 06 be 07 67 be 3d
       0.14541906 0.14912125 -0.1314196 0.09296995
000080 45 1c e4 bd c1 9f 91 3d e2 d7 47 3d 9a 07 ba 3d
       -0.111382045 0.07110549 0.048789866 0.09083481
000090 46 cb 16 3e 15 cd 4f 3e ff 05 a7 3c 49 d0 d8 3d
       0.1472598 0.20293076 0.020388601 0.10586602
0000a0 6a 7b 27 3e 55 16 d4 3d 4a 96 81 3c 68 9f 80 3c
       0.16355672 0.10355822 0.015818734 0.01570101
0000b0 5e dd 30 3e fc 13 45 bd ce 78 03 3e db f8 9f 3d
       0.17271945 -0.04811476 0.12839052 0.07811137
0000c0 25 58 80 3d 37 91 50 bd 74 02 f0 3d 99 ca 38 be
       0.06266812 -0.050919738 0.11719218 -0.18046035
0000d0 dd 6e 97 3d b4 fb d6 3d 66 8c d8 3d 45 99 19 bd
       0.07394192 0.10497227 0.10573654 -0.037499685
0000e0 e5 e5 80 bc 1b 19 3a bd 2a fa 55 3e 6c 7b f7 bd
       -0.015734622 -0.0454341 0.20896211 -0.12084088
0000f0 da b2 0e be b9 3a 91 bd 06 23 23 3e fe 59 4f 3e
       -0.13935414 -0.070912786 0.15931329 0.20249173
